network.0.pth (torch, 22043 bytes, 14 tensors)

_impl.layers.0.linear.weight f4 [36, 2]
000000 ad 9b 29 be e9 a4 9e be 30 e6 bd 3e 2e c9 bd be
       -0.16563292 -0.3098519 0.37089682 -0.3706755
000010 6b 9c c7 bd ce 1f 50 be 56 9a f9 3d c6 a3 ba bd
       -0.09746631 -0.20324633 0.1218764 -0.091132686
000020 e7 77 6a 3e 94 d6 dc 3e 14 c0 67 3e 66 6a 97 3e
       0.22897302 0.4313246 0.22631866 0.29573363
000030 16 9d e8 3d dc 6a 47 3e 93 00 aa 3e 93 18 bb be
       0.11358087 0.19474357 0.33203563 -0.36542186
000040 df 59 f7 bd 05 5d c4 be 4e bb 6c 3e 7e c8 c3 be
       -0.120776884 -0.38352218 0.23118326 -0.382389
000050 f9 0c 8a be 20 06 c8 be 6c 5f 37 be 78 e4 a3 be
       -0.26963022 -0.39067173 -0.17907494 -0.32010245
000060 de c6 63 be 57 6d ca be 1b 50 29 3d 99 02 34 3e
       -0.2224383 -0.39536545 0.04133616 0.17579116
000070 d0 3d 8b 3d 76 71 49 3e 46 72 c8 bd b5 12 60 be
       0.06798899 0.19672188 -0.09787421 -0.21882136
000080 c5 9d 14 be 15 be 8b be 04 55 df bc 7d 25 25 3f
       -0.1451331 -0.2729346 -0.027262218 0.6451033
000090 d5 fb 57 3d 56 ac 14 3f e3 06 81 3e 38 e3 70 be
       0.0527304 0.58075464 0.25200567 -0.23524177
0000a0 41 53 2e bf 48 78 18 3e 34 73 7e be 45 69 77 be
       -0.68095785 0.14889634 -0.24848634 -0.24161251
0000b0 68 8e 5f 3d 99 ac 2d be 51 e9 64 3d 41 66 00 3f
       0.05457917 -0.16960372 0.05588657 0.5015603
0000c0 48 6d d2 3d 2c 80 29 3e 0b f8 41 be 32 43 cf bd
       0.1027475 0.165528 -0.18942277 -0.10120238
0000d0 c7 01 08 3e 24 71 71 3e e4 a1 27 bf fc 89 10 3d
       0.13281928 0.23578316 -0.654814 0.035287842
0000e0 41 f6 a4 3d 2e 38 14 3f ac 5e 2b be 5b 28 a2 be
       0.08054782 0.57898223 -0.16735333 -0.31671414
0000f0 77 a8 6a 3e 37 33 c0 3e 1f 87 fd bd 01 75 86 be
       0.22915827 0.37539074 -0.12379288 -0.26261142
000100 d7 7a 59 3e 2d f0 03 be 55 d0 87 be b8 9f fc 3d
       0.21238266 -0.12884589 -0.26526132 0.123351514
000110 ce ad 47 3e 4d 64 61 be 71 34 a3 bd d9 e5 8c 3e
       0.19499895 -0.22010918 -0.07968987 0.2751911

_impl.layers.0.linear.weight_g f4 [36, 1]
000000 25 16 b8 3f 43 23 9c 3f 64 e6 ca 3f 8e 17 8f 3f
       1.4381758 1.2198261 1.585156 1.1179063
000010 e0 fc 98 3f 7d ca 96 3f 0a ff 8d 3f 96 d3 92 3f
       1.1952171 1.1780545 1.1093457 1.1470821
000020 18 b1 ab 3f 05 c8 9b 3f c0 41 ce 3f 97 2d d0 3f
       1.341342 1.2170416 1.6113815 1.6263913
000030 70 76 c3 3f 2d e5 8c 3f 37 49 9c 3f 3c 20 e4 3f
       1.5270519 1.1007439 1.2209843 1.7822337
000040 d9 ce b7 3f 60 c5 96 40 1c 3d 51 40 87 77 a8 3f
       1.436 4.7115936 3.2693548 1.3161477
000050 52 a2 a1 3f 3d 3b 82 3f a3 26 91 3f 61 94 ca 3f
       1.2627661 1.0174328 1.1339916 1.5826532
000060 72 48 88 3f c7 70 d1 3f c0 8b 6f 3f 99 2e 8e 3f
       1.0647109 1.6362542 0.93572617 1.110797
000070 a0 88 dd 3f d0 37 b9 3f 83 75 86 3f d3 3f c3 3f
       1.730732 1.4470158 1.0504612 1.5253853
000080 93 91 92 3f 5d 00 13 40 97 c0 a4 3f 73 c8 07 40
       1.1450676 2.2968972 1.2871274 2.1216094

_impl.layers.0.linear.bias f4 [36]
000000 3a 5d 6f 3e 72 8f 8d 3e ee a7 ba 3e 3a cc 45 3d
       0.23375407 0.27648503 0.36456245 0.04829047
000010 f8 e7 3f bf 54 5c 80 bf af fc 2d bf a4 d5 1e 3e
       -0.7496333 -1.0028176 -0.6796369 0.15511185
000020 e6 10 13 be 85 3b 59 3e 6a 12 69 3f d8 01 1a 3f
       -0.14361915 0.21214111 0.9104372 0.60159063
000030 46 f3 db 3e b0 a4 da be 2d a1 d9 be fa f5 16 3f
       0.4295904 -0.42703772 -0.4250578 0.5896908
000040 80 d4 c4 3e c8 49 86 be 68 a2 2c bf d2 07 c9 3e
       0.38443375 -0.26228166 -0.6743531 0.3926378
000050 02 f4 7c 3e f4 5a 96 bd f7 a8 f8 3d b6 5a b5 be
       0.24702457 -0.07341567 0.121416025 -0.3542077
000060 b8 15 2d bf c5 44 0d 40 ab fd b1 be 16 a9 48 3e
       -0.67611265 2.2073224 -0.34763846 0.19595751
000070 f7 eb da be 3e 2a 7a 3e 06 43 33 bf 5f 46 2e 3e
       -0.42758152 0.24430177 -0.70024145 0.17019032
000080 10 63 b2 3e 3d fe 1a 40 97 54 a9 bd 8c 23 a5 3d
       0.34841204 2.4217675 -0.08268087 0.08063421

_impl.layers.1.linear.weight f4 [36, 36]
000000 2f fd 21 3e c5 50 02 3e 9f 71 e8 3d c9 ab 27 3e
       0.15819238 0.12726124 0.113497965 0.16374125
000010 df fa 95 3e 95 75 ae bb 2d c3 92 3e 9a ce 0f 3e
       0.29292962 -0.0053240755 0.28664532 0.14043656
000020 2f 02 b3 3e 20 0a 53 be 36 d2 dc bd ec 1d 74 be
       0.34962603 -0.20609331 -0.10782282 -0.2383954
000030 f9 b4 08 3e a2 df f6 3d 5e d4 83 bd 96 a2 71 3e
       0.13350286 0.12054373 -0.0643699 0.23597178
000040 12 57 57 be 12 1c d8 bd ae 96 77 3c 25 d8 1e be
       -0.21029308 -0.10552229 0.015111608 -0.1551214
000050 8d ba 4a 3e 68 8e 55 be b8 59 00 3f 07 ef 94 be
       0.19797726 -0.20855105 0.501369 -0.29088613
000060 84 3b 69 3d 9e 44 02 bd 1c 7a c1 bd 0e 1e ab 3e
       0.056941524 -0.03180372 -0.09447119 0.33421367
000070 2d 58 90 be 63 b1 b0 bc 04 3b 93 bd cf e0 3c 3d
       -0.28192273 -0.02156896 -0.07188991 0.04611283
000080 39 84 81 be 3e 75 3d bd fb ee c5 3d 10 f0 2b 3e
       -0.2529619 -0.04625439 0.096647225 0.16790795
000090 1e 4c 91 be 45 0a 1d be a2 01 9d be d8 8f ff bd
       -0.28378385 -0.15335949 -0.30665308 -0.12478608
0000a0 8b 19 a9 3d c3 58 3f be a3 60 9c bc 3e 1f 49 be
       0.08256825 -0.18686204 -0.019089049 -0.19640824
0000b0 b6 47 26 be 2d 4b 11 be 29 8d d0 be f7 51 b0 be
       -0.16238293 -0.14188834 -0.40732697 -0.34437534
0000c0 ec aa 9d be 9c 3e 9e bd 0c ae bc 3d ee 48 ab be
       -0.30794466 -0.077267855 0.09212884 -0.33454078
0000d0 7b c3 a5 be f8 24 1b 3e c9 8c 9a 3d 27 87 b5 bd
       -0.32375702 0.15150821 0.07546384 -0.08863669
0000e0 99 cd 98 be 8e b0 7a be f2 14 9a bd e9 e4 d7 3c
       -0.2984436 -0.24481413 -0.07523526 0.02635427
0000f0 c9 e2 94 bd 12 31 eb be 62 d1 ab bc 15 e9 99 be
       -0.07269818 -0.45935875 -0.020973865 -0.3006064
000100 a1 cf 8b 3d 29 5a 9d be d5 20 2d bd 29 49 91 be
       0.068267114 -0.3073285 -0.04226764 -0.2837613
000110 58 d2 dc 3c cd 3b 00 bf db 49 81 be 1c 37 18 3d
       0.026955768 -0.5009125 -0.2525166 0.03716193
000120 cb 41 9c be 65 8a 83 bd 63 eb 00 3e 55 84 6b 3e
       -0.30518946 -0.06422881 0.12589793 0.229997
000130 ab 27 48 3e bb 68 7c 3e ac 25 c3 3d ea 5d 23 be
       0.19546382 0.24649327 0.0952867 -0.15953794
000140 72 d9 d4 be 33 47 69 3e 7b ed e4 3d f4 d4 b5 be
       -0.41572148 0.22781067 0.11178108 -0.35514033
000150 58 17 31 3e b0 9d 34 be 3f 52 d5 3d b4 85 8b 3d
       0.17294061 -0.17638278 0.10416078 0.06812611
000160 9b 28 ce 3d d3 e5 87 be 6e 17 fa 3d 2e 81 74 be
       0.10066339 -0.2654253 0.122115 -0.23877403
000170 dd 0d 1d 3d da ee ce be 81 1b 4d 3e 89 cb 71 bd
       0.0383433 -0.40416604 0.20030023 -0.059031997
000180 af a7 9b be 65 89 49 3e 3a a3 ab 3d 05 0f e8 bd
       -0.3040137 0.19681318 0.08380742 -0.1133099
000190 f9 d2 98 3e e3 a4 81 3e 7d 15 84 3e e7 8a 2a 3d
       0.2984846 0.2532111 0.25797644 0.041636374
0001a0 a4 7a e9 bd 2a bf e4 3d 77 f4 c0 3d 3e 86 68 be
       -0.11400345 0.11169274 0.09421628 -0.2270746
0001b0 c6 c3 8f be 7a fd 07 3e 5b 90 8e be 58 0b 23 3e
       -0.2807905 0.13280287 -0.2784451 0.15922296
0001c0 61 fb f9 3c 02 fc 75 be 46 67 45 3e 45 80 1d be
       0.030515375 -0.24021915 0.19277677 -0.15380962
0001d0 d5 81 51 be 14 53 9e bd a2 4f ab be f6 8c 40 be
       -0.20459683 -0.0773069 -0.33459193 -0.18803772
0001e0 26 59 98 be c6 72 83 3d 7e 8e 3b be ff a9 24 be
       -0.29755515 0.06418376 -0.18316075 -0.16080473
0001f0 4b 9f a2 be 9e c4 46 3c 62 12 2d bd 1c ec 16 be
       -0.31762156 0.012131838 -0.04225386 -0.14738506
000200 79 7d a1 be 95 8d 8d be 0e 22 bd bd 64 43 b9 bd
       -0.3154104 -0.2764708 -0.09235011 -0.09046057
000210 28 f3 d2 3d 15 24 1d bf 38 00 31 be 56 b8 ae be
       0.103002846 -0.6138318 -0.1728524 -0.34125012
000220 0c dc cb bd 4f 12 68 be 36 c4 a6 3d a0 06 8e be
       -0.0995408 -0.22663234 0.08142893 -0.2773943
000230 8f 2b 31 be e1 a0 ef be 4d 7d 50 be 97 83 0e be
       -0.17301773 -0.46802428 -0.20360298 -0.13917385
000240 09 75 0b be c1 eb 02 3e 04 3f 43 3e c1 7f 98 be
       -0.13618864 0.12785245 0.19067007 -0.29784968
000250 55 0e a4 3c 18 da 8c 3c 4f 32 b6 3d d6 71 3d 3e
       0.020026365 0.017193839 0.08896314 0.18500456
000260 f6 85 ba 3d b2 29 6f be 99 e1 bd 3d c2 8a 06 3e
       0.09107582 -0.23355749 0.09271545 0.1313887
000270 2c 65 58 3e d0 26 65 be cb a2 07 3d 86 2f 40 bb
       0.21132344 -0.22378087 0.033114236 -0.0029325201
000280 d4 de f3 bb 89 95 94 3e d6 b4 84 3e 5f 18 4c 3d
       -0.0074423347 0.29020336 0.25919217 0.04982793
000290 c6 29 7e be 2b 0f bd 3c da a4 2b 3e 52 fa 75 3d
       -0.24820623 0.023078522 0.16762105 0.060053177
0002a0 46 9a 1d be 9c c7 e5 be 23 36 d5 bd 27 b8 cd 3d
       -0.15390882 -0.44878852 -0.104107164 0.1004489
0002b0 c3 d9 a9 bc aa e2 ab 3d 92 8c 6b 3e 7f 38 13 3e
       -0.02073372 0.08392842 0.23002842 0.1437702
0002c0 49 d0 05 3e 81 9e b1 be 7a ac 24 be b7 1c 3a be
       0.13067736 -0.3469124 -0.1608142 -0.18175016
0002d0 0a 75 d1 bc 66 5f 44 3d 2f 49 da bc c2 25 0d be
       -0.025568504 0.04794254 -0.026646225 -0.13783935
0002e0 5a be eb bd 02 ed 72 3e 22 b5 66 be 64 a3 9d 3c
       -0.11510916 0.23723224 -0.22530034 0.01924295
0002f0 5e 90 09 3e fa 7d fe bd 2c d3 85 be c4 1e 8a 3e
       0.13433978 -0.12426372 -0.26137674 0.26976597
000300 62 f9 54 be 26 79 12 3e 48 74 b9 bd a6 12 bf 3b
       -0.20798257 0.14304027 -0.09055382 0.0058310805
000310 d7 ec 5a be 55 fe d1 bd 90 19 60 3c 8d 9b 7d be
       -0.2137941 -0.10253588 0.01367797 -0.24766369
000320 2b b0 cf 3e a0 60 30 3e ac f1 9c bd 33 2e 6a 3e
       0.40564093 0.1722436 -0.07663283 0.22869186
000330 64 c7 31 3e bc 3b 3c be 9f e9 78 3e ca 42 a7 3e
       0.17361218 -0.18382162 0.2430787 0.32668144
000340 d9 e6 ff bd 05 11 b5 be 7a 17 19 3e 34 5d 87 be
       -0.124952026 -0.35364547 0.14950362 -0.26438296
000350 65 0e 66 be 90 7b 75 3e 7e 66 1a 3e 02 57 07 3e
       -0.22466429 0.23972917 0.1507816 0.13216785
000360 a4 5c a9 bd 03 fb 25 be 49 ef ea bd 9e ed 47 be
       -0.08269623 -0.16209035 -0.11471421 -0.19524238
000370 e9 1c d6 bc 43 bb 0b be 86 25 7c bd f5 f0 ff bd
       -0.026136832 -0.13645653 -0.061559223 -0.12497131
000380 3a 43 f4 bd f1 c8 e5 bd 1f 8e 37 bd de 56 82 bd
       -0.11926885 -0.11219967 -0.04481327 -0.06364225
000390 aa 0a 93 bd 20 ce cd 3c 04 2a bd 3c 26 01 c1 bd
       -0.071797684 0.025122702 0.023091324 -0.09424047
0003a0 df 67 a5 bd 18 70 cc 3e 12 89 06 3e ba fe 18 be
       -0.080764525 0.3992927 0.13138226 -0.1494092
0003b0 91 1e 25 3c 6b 59 6d bd 80 6e c5 bd 1a c1 f5 3c
       0.010078088 -0.057946604 -0.09640217 0.029999305
0003c0 19 14 2e be e0 0f 27 bd af 5b d0 bd 05 53 8a bc
       -0.16999854 -0.040786624 -0.10173737 -0.01688529
0003d0 d2 13 10 b8 2d f6 bb bd 10 8d 0e be 40 f1 c6 bd
       -3.4350734e-05 -0.09177814 -0.13920999 -0.097139835
0003e0 64 1b 01 be cd 9a 63 3e 20 0f 2c be 2f 1d 51 3e
       -0.12608105 0.2222702 -0.16802645 0.20421289
0003f0 ec a4 a0 be 17 7c 93 bc 24 e6 a8 be 60 53 78 3e
       -0.31375825 -0.018003507 -0.32988083 0.24250555

_impl.layers.1.linear.weight_g f4 [36, 1]
000000 67 b1 77 3f 95 6b e7 3f 0d eb 6d 3f f3 e6 b4 3f
       0.9675507 1.8079706 0.92936784 1.413298
000010 96 8d 7b 3f 63 51 67 3f 24 d7 a8 3f 79 14 d2 3f
       0.9826292 0.9035856 1.3190656 1.6412498
000020 a5 0c b6 3f 68 5d 52 40 8c ec 93 3f cd e8 8b 3f
       1.4222609 3.286951 1.1556563 1.093042
000030 c6 92 db 3f bf f0 8d 3f 80 0c 8e 3f 01 ce 8f 3f
       1.7154167 1.1089095 1.1097565 1.1234742
000040 75 3e 80 3f a7 76 7f 3f a6 6e 65 3f 72 4c 74 3f
       1.001906 0.99790424 0.8962196 0.95429146
000050 58 c4 75 3f 9d 92 7e 3f 9e 89 8d 3f fe f5 bf 3f
       0.9600272 0.99442464 1.1057622 1.4996946
000060 4f 2f 09 41 5b 3d 4f 40 cd 7d f8 3f 5a b7 d9 3f
       8.57405 3.2381198 1.9413391 1.700908
000070 1b fb 84 3f 2b f1 90 3f 46 e8 8e 3f 5c da 74 3f
       1.0389131 1.1323599 1.1164634 0.9564569
000080 f1 27 75 3f 57 1a 1f 40 fa 23 8d 3f d7 5b 7a 3f
       0.9576407 2.4859827 1.1026604 0.97796386

_impl.layers.1.linear.bias f4 [36]
000000 9b c7 8d bd 3e e2 06 3f 26 ca 58 3d 16 e5 59 3e
       -0.06922837 0.5268897 0.05292716 0.21278796
000010 5d e9 a4 bb 6c 09 cf 3c 5e f2 c1 3d c5 9d 3a 3f
       -0.005032702 0.025273047 0.09470056 0.7289699
000020 f3 6a b6 3e ca fd a2 3f d0 ba bf 3d 61 31 9e 3e
       0.3562847 1.27337 0.093618035 0.30897048
000030 d4 45 c4 3d 20 a8 ae ba d2 7f 82 bc f4 4e c8 bd
       0.09583631 -0.0013325252 -0.01593009 -0.09780684
000040 70 89 66 bd d2 72 3d bc cb f4 fb bd 28 de 84 bd
       -0.056283414 -0.01156302 -0.1230255 -0.064876854
000050 56 fb 04 bd 78 7e 31 3b 5c f9 2e 3d 5a 4f e2 3e
       -0.032466255 0.0027083438 0.042718276 0.44201165
000060 0c b9 30 40 b6 c7 0f 3f 55 75 08 3e d1 bb 4f 3c
       2.7612944 0.5616411 0.13326009 0.012679056
000070 a3 9d 09 3e ad d1 c0 3c 59 bd 71 3c f8 f7 09 be
       0.1343904 0.023537481 0.014754617 -0.13473499
000080 4d ba 72 bd 8d 98 b8 3f 32 e6 9e 3e 09 66 6d 3d
       -0.0592597 1.4421555 0.31035 0.057958636

_impl.layers.2.linear.weight f4 [36, 36]
000000 fc 0a 0d be 04 dd 33 3e 5c f4 db bd a8 07 23 be
       -0.13773721 0.1756478 -0.10739967 -0.1592089
000010 f3 6e 00 3e 4e 30 11 be 9e 7c cb bd ff 66 3c bd
       0.12542324 -0.14178583 -0.09935878 -0.045996662
000020 0b 19 11 3d 55 98 4a bf 8d 56 8c 3b 22 6c bc bc
       0.035424273 -0.7913869 0.0042827786 -0.02300078
000030 07 3d 60 bd 90 84 a1 bd d3 f0 90 bc 7e cc 19 3d
       -0.0547457 -0.078866124 -0.017692959 0.037548535
000040 4a 75 a1 3a fe b7 de bd 89 e9 c1 bc 22 2f bf bd
       0.001231828 -0.108749375 -0.023670929 -0.09335162
000050 7c 9e 34 3d 83 8a e6 3b a5 2c fd bd c0 6f 98 be
       0.044096455 0.007035555 -0.12362031 -0.29772758
000060 f6 50 f8 bd 40 ce ca bd 8f 89 2f be be 94 90 bb
       -0.12124817 -0.0990262 -0.17142318 -0.0044122627
000070 e2 eb 5e be 63 62 9f 3d fa 45 5d bc 5a 08 25 be
       -0.2176967 0.07782438 -0.013505453 -0.16116467
000080 f2 80 6b be 84 1c 10 3e 8d 6e fd 3c dd 4e 1e 3d
       -0.22998407 0.14073378 0.030936504 0.03864943
000090 bc 3b 91 be c2 0a 9d 3e 01 d9 ee bb ae c4 23 3d
       -0.28365886 0.3067227 -0.0072890525 0.03998249
0000a0 17 7a 51 3e a2 3f 15 3d 0a 2d f9 bd b8 cf d5 bd
       0.2045673 0.036437638 -0.12166794 -0.1044001
0000b0 68 b2 8d be 67 e0 a2 3d 4b 72 db 3d 56 53 0c be
       -0.27675176 0.079529576 0.10715159 -0.13703665
0000c0 bc ff 8d 3e e9 23 1d 3e 61 07 2c 3e e6 98 a9 3b
       0.27734172 0.1534573 0.1679969 0.0051756976
0000d0 e8 5a 9f bd 63 64 45 be c9 10 10 3e 75 42 87 be
       -0.07781011 -0.19276576 0.14068903 -0.2641789
0000e0 03 d2 c4 3d aa 4f 77 3b 19 54 2f 3e c9 e1 51 3e
       0.09610369 0.0037736692 0.17121924 0.20496286
0000f0 6f 32 0f bd c3 25 e3 be 65 05 b7 3e 86 5e 2e 3e
       -0.034960207 -0.44364747 0.35746303 0.17028245
000100 e8 53 d1 3d 26 db c0 3d 66 66 5a 3d 3a e7 87 3e
       0.10221082 0.09416799 0.05332031 0.265436
000110 3a a1 56 3e 35 3b 9e 3e d4 6f 85 3e e7 23 ed bd
       0.2095994 0.30904546 0.2606188 -0.115791135
000120 42 b2 f0 3d cc a5 62 be b5 ed 6a 3e 11 2d ee 3d
       0.1175275 -0.22133559 0.2294224 0.116296895
000130 13 03 80 bc 6e 2c 59 3e dd 61 8e bd 1a b2 89 3e
       -0.015626466 0.21208355 -0.0695226 0.26893693
000140 33 5a 79 be 4d 1e 99 3d 5b b0 aa be 53 18 df 3c
       -0.24350815 0.074764825 -0.33337674 0.027233278
000150 56 9b 92 3e 67 56 37 3e c1 16 f5 bd 63 15 64 3b
       0.28634137 0.17904054 -0.119672306 0.0034802787
000160 3f c2 8c 3e e6 70 38 3d 14 31 11 be c8 bb 9d 3e
       0.27491948 0.045029543 -0.14178878 0.30807328
000170 da b6 19 bb 85 9b 12 3d a7 ac aa 3e 4d de e2 bc
       -0.0023454935 0.035792846 0.33334848 -0.027693892
000180 61 0a 4e 3e 7d 91 da bd 30 bb e4 3d 58 bb 97 3e
       0.20121147 -0.10672281 0.11168516 0.2963512
000190 36 c0 60 bd c2 15 95 be d2 86 ac be e8 d8 65 bd
       -0.054870807 -0.29118162 -0.3369661 -0.05611506
0001a0 d1 cc 56 be 35 3f 81 3e 99 da c4 be 8f ca 7e bd
       -0.20976569 0.25243536 -0.38448027 -0.062204894
0001b0 7f 2c dd 3c af 06 f5 bd 17 d0 03 3e 4e 57 74 3e
       0.026998756 -0.119641654 0.12872349 0.23861429
0001c0 fa ad b3 3d 03 14 f9 3d b1 ef 50 3d 69 8a a1 be
       0.08773418 0.1216202 0.051009838 -0.3155091
0001d0 03 8b 7e 3e 8c 2a d7 bd 42 bd b1 be 12 79 2b be
       0.24857716 -0.10506162 -0.34714705 -0.16745403
0001e0 6e b1 9d 3e 2b 75 a1 3d 21 8d e0 bb 56 07 3f be
       0.3079943 0.07883676 -0.0068527614 -0.18655142
0001f0 aa c9 08 3e 89 5a 5c bd 9e da b1 3d 98 0b 0a 3d
       0.13358179 -0.05379728 0.08684276 0.033702463
000200 38 6f a9 3e cd 1d 98 be f5 90 92 3c 98 b0 b3 3c
       0.33092666 -0.29710236 0.017891387 0.021934792
000210 6b d3 0f 3e e2 de ed bd 00 2d 28 3d 09 e6 82 bd
       0.14045493 -0.11614777 0.04105854 -0.06391532
000220 d8 2d 84 3e e6 0b 22 be da cb 5d be 6e fb 56 be
       0.25816226 -0.15824851 -0.21659794 -0.2099435
000230 53 64 d7 3d 20 ab f4 be 4b 3e 81 3e 85 58 6c bd
       0.10517182 -0.47786808 0.25242838 -0.057701606
000240 46 89 1f 3e b7 ae e2 3d f2 2c db 3c cf e3 9b be
       0.1557971 0.110684805 0.02675483 -0.30447242
000250 13 5a 48 3d 28 02 5f 3e 02 9e 14 be ca 57 43 3e
       0.048914026 0.21778166 -0.145134 0.19076458
000260 af 7c 07 3e bf 32 05 bf 98 1d 0c bd 5a 7c fd bd
       0.13231157 -0.5203056 -0.03420791 -0.12377234
000270 6a 49 ee 3d 65 12 38 bd d8 ec 12 3c 6a e4 8a 3e
       0.11635096 -0.044939417 0.008967601 0.2712739
000280 7f 42 f0 bd 9d 3d 36 3e c2 19 43 be bf f4 6d 3e
       -0.11731433 0.17796941 -0.19052795 0.23237894
000290 f1 b3 62 3e 07 de 2d bc 18 6b ac bc 78 e7 54 be
       0.22138955 -0.0106120175 -0.02104716 -0.20791423
0002a0 16 f4 df bd dc c5 f6 3d 48 6b 6f 3e 19 17 1b be
       -0.109352276 0.120494574 0.23380768 -0.1514553
0002b0 29 0b 30 be a8 f6 a1 bd 2d 5a fe 3d e0 eb 8d 3e
       -0.17191757 -0.07908374 0.124195434 0.2771902
0002c0 ef e7 d9 3c 75 ed a3 3b a2 c7 90 3d e3 b9 06 bc
       0.026599852 0.0050026723 0.07069327 -0.00822303
0002d0 e9 ea 3e be d0 21 4d 3d 12 db 67 3e 99 13 59 3e
       -0.18644299 0.050081074 0.22642162 0.21198882
0002e0 97 d7 93 be 5c 24 28 3e d5 f9 57 3e 7a 66 c7 be
       -0.2887542 0.1642012 0.21091397 -0.3894537
0002f0 27 1b d0 3d d6 dd 5e bd 45 b2 2b be 94 bf 0d bf
       0.10161429 -0.054410778 -0.16767223 -0.5537045
000300 85 cc 14 3e dd e7 a3 3d 97 46 85 be 7e 3a 8d be
       0.14531143 0.08003209 -0.26030418 -0.27583688
000310 57 cf cf 3b 92 13 24 be cf 84 96 be 71 37 c0 3d
       0.0063418555 -0.1602309 -0.293982 0.093855746
000320 09 a1 96 3d 47 23 30 3e 4c e8 87 3d fe 77 af 3e
       0.07354934 0.17200957 0.06636104 0.34271234
000330 cd 30 4d bf 3f 60 c2 be 96 9d 10 bc 0b f5 89 be
       -0.8015259 -0.37964055 -0.008826634 -0.26944765
000340 60 4f 8d be 01 75 5e 3c 9b 58 bf be 10 2c 94 be
       -0.2759962 0.013577701 -0.37372288 -0.28939867
000350 b4 80 86 be 79 37 cb be e1 47 6e 3d f6 75 d0 3c
       -0.26270068 -0.3969076 0.058174018 0.025446873
000360 16 9b 3e 3c 8c 57 af 3e f5 02 a8 bd 65 dd 0a 3e
       0.011633655 0.3424648 -0.08203689 0.13561018
000370 ab 75 85 bc 0d f2 4b 3c c2 38 f8 ba a4 91 4e be
       -0.01629146 0.012447846 -0.0018937814 -0.20172745
000380 93 ca a6 bd 21 4b ab be f6 09 95 bc 37 3c 80 bd
       -0.08144107 -0.33455756 -0.018193226 -0.06261485
000390 25 a6 64 3e c0 0f bc 3d 83 70 8b bc a0 9e 66 3c
       0.22329004 0.091826916 -0.017021423 0.014075905
0003a0 81 0b 89 bd 0d d7 c2 bd 63 45 05 bd f0 8a 2f bc
       -0.06691647 -0.09513674 -0.032536875 -0.010714278
0003b0 b7 88 ce bc 37 50 53 be 33 09 57 bc dd 70 5b bd
       -0.025211675 -0.20636068 -0.013124752 -0.05357443
0003c0 4e bf 8d bf 8f aa 0d bf c0 08 15 3e 17 14 19 3e
       -1.1074007 -0.55338377 0.14554119 0.1494907
0003d0 5c 70 ba 3c 70 dd b6 bc b2 95 cc ba 38 56 15 bd
       0.022758655 -0.022322387 -0.0015608578 -0.036459178
0003e0 ab 2c e3 bd 25 f7 a3 be 80 78 ba bd 4f db 88 bd
       -0.11092504 -0.32024494 -0.09105015 -0.06682455
0003f0 9c bb 10 be 0e b3 8b 3e 14 29 d3 3d b5 d1 56 3e
       -0.14134067 0.27285045 0.103105694 0.20978434

_impl.layers.2.linear.weight_g f4 [36, 1]
000000 f0 c0 a1 3f 3e d8 7d 3f 9e 98 72 3f b1 31 61 3f
       1.2637005 0.99158084 0.94764125 0.8796645
000010 25 21 82 3f 91 15 84 3f 8c 93 84 40 09 5f 79 3f
       1.0166365 1.0319082 4.143011 0.9741064
000020 a4 56 a1 3f 85 0f 6c 3f 2d 96 69 3f b2 60 6d 3f
       1.2604566 0.9221118 0.91244775 0.9272567
000030 5e 05 81 3f 3f b9 8f 3f b9 1c 16 40 80 26 8a 3f
       1.0079763 1.1228408 2.345503 1.0792999
000040 c9 2a 6c 3f b8 37 6d 3f 8b b8 7a 3f 25 11 cd 3f
       0.92252785 0.92663145 0.9793784 1.6020857
000050 69 cd 84 3f d4 89 90 3f 8a 64 72 3f 2b b3 91 3f
       1.0375186 1.1292062 0.9468466 1.1382803
000060 8b 3f 88 3f 3a d3 7b 3f 1d 16 9a 3f 2c 45 c3 3f
       1.0644392 0.9836918 1.2037998 1.5255485
000070 4e 5c d8 3f a6 52 76 3f 2a b3 85 3f 88 d4 77 3f
       1.6903169 0.9621986 1.0445302 0.9680867
000080 44 44 a9 3f 11 d5 94 3f d2 89 6d 3f d3 5b 71 3f
       1.3223958 1.1627523 0.9278842 0.9428074

_impl.layers.2.linear.bias f4 [36]
000000 76 f3 f7 bd 3c 7b 2b 3a e1 96 d7 3c 12 d9 82 bb
       -0.12106983 0.00065414957 0.026317062 -0.003993162
000010 b9 85 58 3c ee cd 18 3d c5 61 88 3d 37 98 1d 3d
       0.013215476 0.037305765 0.06659273 0.03847524
000020 1b b2 ab bd 63 15 cd bd fc ae c5 3b 74 71 46 bd
       -0.0838358 -0.10013845 0.0060328227 -0.04844804
000030 18 8f 90 3c 36 18 44 3d a7 8f 45 3e c9 4d d5 bb
       0.017646357 0.04787465 0.1929308 -0.006509517
000040 5a e2 f1 3b 43 84 0b bd 2f 86 04 3d 4c a3 94 3d
       0.0073817195 -0.03406168 0.03235453 0.07257709
000050 a4 5f f6 3c 96 28 a3 3c 62 a0 2d bc 00 12 5f 39
       0.030074902 0.019916814 -0.01059732 0.00021273643
000060 71 44 ff bb c5 ac 35 bb c4 40 ef 3c 3f ec fa bd
       -0.0077901413 -0.0027721387 0.029205687 -0.122520916
000070 2d 4b 47 be b5 c3 40 3a 3b 8a 94 bd 59 43 9d bc
       -0.19462271 0.00073533814 -0.07252928 -0.019197153
000080 62 27 d8 3c 80 ff ad b9 f5 e8 39 3d ae 06 18 bd
       0.026385967 -0.00033187494 0.04538818 -0.037115745

_impl.layers.3.linear.weight f4 [36, 36]
000000 95 af 67 3e c8 7d 11 be a2 e2 5a bd f1 45 24 3b
       0.22625573 -0.14208138 -0.05343879 0.0025066102
000010 8b 17 e3 bd f5 84 74 3e 05 5d 4c be 8c 3f 5c 3c
       -0.11088475 0.23878844 -0.19957359 0.013442885
000020 75 fd 7c be f8 92 19 bc ae fb 52 3e 53 b3 6f be
       -0.24706061 -0.009373419 0.2060382 -0.2340825
000030 9e 2b e8 3b 96 56 8c 3d 5e fe 10 be 72 6d c2 3d
       0.0070852777 0.068524525 -0.14159533 0.09493531
000040 03 03 6e 3d eb c8 10 be 83 93 e6 bd e3 00 62 3e
       0.05810834 -0.14139144 -0.112586044 0.22070651
000050 0b 26 74 3e 28 24 72 be bc 04 9c be 9b 6a 61 bd
       0.23842637 -0.23646605 -0.30472362 -0.055033308
000060 99 3a 8e 3d fd 02 df 3b e2 2f c6 3d 4e 28 00 3d
       0.0694477 0.006805776 0.09677102 0.031288438
000070 6a a8 4f be 1e 3d a7 3d 2e 8a 6f bd 4b bc 5a 3e
       -0.20279089 0.08165954 -0.058481388 0.2136089
000080 39 be ae 3e b6 f3 76 3e bf 2c 79 3e 3e cf 9a be
       0.34129503 0.24116406 0.24333476 -0.30236238
000090 39 ea 67 be 61 bb 97 be bf 43 2e 3e 8a 6d 80 be
       -0.22647943 -0.29635146 0.1701803 -0.25083572
0000a0 a4 57 cf 3c 10 e5 d6 bd d9 12 90 bd 3d c2 3f be
       0.025310345 -0.10492909 -0.07034845 -0.1872644
0000b0 92 9c 12 be c2 b8 88 be f9 5b 62 3d 8d a0 01 be
       -0.1431754 -0.2670346 0.055263493 -0.12658902
0000c0 78 4f 91 3e ba 86 57 bd f9 a7 ae 3d a6 cc 41 bc
       0.28380942 -0.05261872 0.08528132 -0.011828577
0000d0 b7 9f d1 bd c0 f1 7a be 14 d4 7d bd a4 3e 81 3e
       -0.10235541 -0.24506283 -0.06196983 0.25243104
0000e0 af 81 22 3e 65 d4 9c 3d b0 4f 1a be 90 0a 69 3e
       0.15869783 0.076576985 -0.15069461 0.22757936
0000f0 a0 ef 4a 3e 8c 60 a6 3e 86 37 81 bc d4 0e 10 be
       0.19817972 0.32495534 -0.015773546 -0.14068156
000100 af d8 40 be 46 be 8f 3e 19 09 8b bc 9b e1 fb 3c
       -0.18832658 0.28074855 -0.016972112 0.030747226
000110 9d 5f 04 3e 88 9a 32 be 0b 23 7c bd 31 af 58 3e
       0.12927099 -0.17441761 -0.061556857 0.2116058
000120 e2 11 8d bc 4c 02 1f 3b ae 01 44 be 45 d6 49 be
       -0.017220441 0.0024262844 -0.19141266 -0.19710644
000130 06 de 22 be 45 07 8b be 38 6d b8 3c df 11 12 be
       -0.15905008 -0.27153984 0.022513017 -0.1426463
000140 b1 bd 97 3e 25 53 60 3e 71 c7 95 3c 72 81 8e 3d
       0.2963691 0.21906717 0.018283578 0.069582835
000150 eb 59 3f 3c 8e 24 d2 bd ba 40 11 bd 9f 60 1d be
       0.011679153 -0.102608785 -0.03546212 -0.1536889
000160 10 39 f5 bc 9b 23 8a 3e 16 dc 39 be 9f 73 cf bd
       -0.029934436 0.2698029 -0.18150362 -0.10129475
000170 aa 50 36 3e f5 84 36 3d f6 b7 23 be 89 09 c3 bb
       0.17804208 0.04456039 -0.15988144 -0.0059520644
000180 81 e7 5d 3d d1 96 62 be c0 c9 30 3e f9 3e aa 3d
       0.054175857 -0.22127844 0.17264462 0.08312792
000190 88 c5 3a 3e 84 24 3c 3d ab ee ed 3d dd bd d1 bc
       0.18239415 0.04593326 0.11617788 -0.02560323
0001a0 6c 21 3e be 5c 15 51 3e 1f 7b bf bd ba 4e df 3d
       -0.18567437 0.20418304 -0.09349655 0.10903688
0001b0 7c 40 04 3d 05 a2 90 be e1 e8 1e 3e 4d 4c 3b be
       0.03228806 -0.2824861 0.15518524 -0.18290825
0001c0 00 84 5a be 90 d1 37 be 5f 0b 9e 3d 47 30 35 3e
       -0.21339417 -0.17951035 0.077170126 0.17694198
0001d0 90 04 54 3e 72 93 8d be 42 2c 26 be 3d 52 6c bd
       0.20704865 -0.27651554 -0.1622782 -0.057695616
0001e0 3f 11 89 be aa c8 71 be 39 97 10 3e 1a 43 a9 3d
       -0.2677097 -0.23611704 0.14120187 0.08264752
0001f0 e8 06 13 be 3c 30 24 bc 49 28 1a 3d 2a 65 09 3e
       -0.14358103 -0.010021266 0.037636075 0.13417497
000200 4a 1c 46 be f2 3e 8b bd 02 1c bd bd a2 2a 5a bb
       -0.19346729 -0.06799115 -0.09233858 -0.0033289571
000210 35 b5 ae be a5 eb 82 3d 67 54 de bd e3 a1 f9 3d
       -0.34122625 0.06392602 -0.10855942 0.121890806
000220 19 14 1a be a6 d2 8d bd e3 4d 59 3d 42 cf c0 3d
       -0.15046729 -0.069249436 0.053052794 0.09414531
000230 46 71 45 3d df bb 52 3d f0 d6 7d 3c a3 bf 5b 3e
       0.04820373 0.0514487 0.01549314 0.21459822
000240 5a 17 87 3e e1 57 11 3e 5f 16 f0 3d 51 18 aa bd
       0.26385003 0.1419368 0.11723017 -0.08305419
000250 d1 ba 82 3e bb c8 1d 3e 66 cf 69 be 54 c0 46 be
       0.25533155 0.15408604 -0.22833022 -0.19409305
000260 39 98 99 3e b4 ae 2a 3e 8f 08 d1 bd d4 42 0d 3e
       0.2999895 0.16668206 -0.102067105 0.13795024
000270 e1 a3 58 3e 46 1e 4f bc 32 67 94 be a1 61 44 be
       0.21156265 -0.012641495 -0.28984982 -0.19177867
000280 42 35 11 be b7 14 13 3e bf ac 60 be 50 7e c5 bd
       -0.14180472 0.14363371 -0.21940897 -0.09643233
000290 0e 42 99 3d 97 02 60 be 61 d4 44 bd c1 21 8c 3e
       0.07483302 -0.21875988 -0.048054103 0.27369502
0002a0 c6 2b b6 bb bd 78 19 be 66 49 95 3e dd a3 15 3e
       -0.0055594174 -0.14987464 0.2915756 0.1461329
0002b0 29 90 0e bc db 88 c2 bd 68 eb 8d be 42 9c 6c be
       -0.008701363 -0.09498759 -0.27718663 -0.23106483
0002c0 a3 8c 03 be 72 76 a3 3e fd 86 96 be 4c 09 ac bd
       -0.12846617 0.31926304 -0.29399863 -0.08400211
0002d0 f1 73 86 bc b2 08 35 3e f9 a7 19 3e 05 8a 94 bd
       -0.016412707 0.17679098 0.15005483 -0.07252888
0002e0 bc f8 2f 3e b4 9e 24 bb 8f 6b 45 bf ee d5 2c 3e
       0.17184728 -0.0025119008 -0.77117246 0.16878483
0002f0 f2 61 a1 bd 54 32 2f 3e 21 aa 75 3c c8 be 09 be
       -0.0788001 0.17109042 0.014994175 -0.13451684
000300 8b 56 cb 3d 1f 69 72 be e0 db 1e bd b3 f5 47 3e
       0.09928616 -0.23672913 -0.038783908 0.1952732
000310 b4 b5 35 3e 70 39 e3 bd b1 cb 3f be 93 74 a3 be
       0.17745095 -0.1109494 -0.18730046 -0.31924877
000320 dd fd 81 be 7d 58 1e 3e 81 e2 b6 3d ef 6c 02 3e
       -0.25388995 0.15463443 0.08929921 0.12736867
000330 86 4f 43 bc 6e 31 45 ba 0a 2b 3b 3e 66 86 94 3a
       -0.011920815 -0.0007522319 0.18278137 0.0011331558
000340 49 8f 52 bd 13 c7 69 be 59 79 97 be e3 2d 72 be
       -0.05140618 -0.22829847 -0.29584768 -0.23650317
000350 38 f6 d3 bd e1 4d 3e 3e f7 75 cf 3d e0 71 aa 3d
       -0.10349697 0.18584396 0.10129922 0.08322501
000360 90 8f b9 3d 1c ad 2f be 31 51 d5 3d 9c ce 6c be
       0.090605855 -0.1715588 0.10415877 -0.2312569
000370 21 46 a2 be 56 11 55 3c 1d 44 51 3e a7 04 67 be
       -0.3169413 0.0130046215 0.2043614 -0.22560368
000380 c7 58 a3 bc f3 6d 85 be 95 0e 79 be ba 9e c3 3d
       -0.019939793 -0.26060447 -0.24321969 0.09551759
000390 11 5c 26 3e 6c 19 47 be 9d 7e fc 3e f2 e6 c7 39
       0.16246058 -0.19443291 0.49315348 0.00038128305
0003a0 37 15 04 be 97 46 2b bd c4 df e7 bc 47 2d 67 3e
       -0.12898718 -0.041815367 -0.028304942 0.22575866
0003b0 1a 02 a1 3c 26 97 d3 3d ad 5b 40 3e 98 34 1a 3c
       0.019654322 0.10331564 0.18784972 0.009411953
0003c0 7b 17 b2 bd b8 63 6c 3e 0b 72 a3 3b de c2 df 3e
       -0.08695885 0.23084915 0.00498796 0.4370336
0003d0 40 e7 d0 3e 7c 33 08 3e 31 67 db 3d dd b7 35 3e
       0.4080143 0.1330089 0.107130416 0.1774592
0003e0 4a 9f 3f 3e 56 13 67 b9 4b a6 aa bc bb 0a 38 be
       0.18713108 -0.0002203708 -0.020831248 -0.17972843
0003f0 03 a4 c6 bd 0c 5a 4c 3e db 08 ca 3b c8 3b a5 be
       -0.096992515 0.19956225 0.0061656064 -0.32272172

_impl.layers.3.linear.weight_g f4 [36, 1]
000000 a0 6b 80 3f 10 4c 6c 3f 7e 36 90 3f 55 0a 83 3f
       1.0032845 0.9230356 1.126663 1.0237528
000010 d1 03 69 3f 31 b2 be 3f 5c 07 66 3f 47 6c 9c 3f
       0.9102145 1.489813 0.8985498 1.2220544
000020 a3 cc 92 3f 02 69 77 3f d1 90 85 3f 5d 38 74 3f
       1.14687 0.96644604 1.043482 0.95398504
000030 b9 8c 6c 3f 63 ff 6d 3f 7a 18 41 40 22 51 71 3f
       0.92402226 0.92967814 3.017119 0.94264424
000040 46 59 70 3f 03 58 8f 3f 2f db 70 3f 57 f9 81 3f
       0.9388622 1.1198734 0.9408445 1.0154217
000050 4c 3c 91 3f 89 f9 75 3f 99 11 80 3f 99 26 86 3f
       1.1346526 0.96083885 1.000537 1.0480529
000060 b9 37 a2 3f 34 4d 86 3f 3c 77 69 3f 50 3e 6c 3f
       1.2673255 1.049231 0.9119756 0.9228258
000070 7e cc aa 3f 4e f5 68 3f 6a 9e 85 3f 26 4f 79 3f
       1.3343656 0.90999305 1.0438969 0.97386396
000080 99 18 aa 3f 77 66 9e 3f ba b7 7e 3f 26 7e 6a 3f
       1.3288757 1.237502 0.99499094 0.9159874

_impl.layers.3.linear.bias f4 [36]
000000 7c a3 c2 bb f4 f0 0e bc 74 b0 84 bc 2a be 0b bc
       -0.005939899 -0.00872444 -0.01619742 -0.008529225
000010 2e 01 9a bc dc bb 37 bc 71 13 34 bd c5 b9 23 3c
       -0.01879939 -0.011214223 -0.043963853 0.009993021
000020 ff fd 38 bd 51 0c 01 bd 9e a0 d9 bc 2a b7 98 bc
       -0.045164105 -0.031505886 -0.026565846 -0.018642027
000030 2d 08 b8 bc 5b a8 90 bc 21 df af bd 18 ad 09 3d
       -0.022464836 -0.017658403 -0.0858748 0.03361234
000040 31 80 97 bc 43 5f e1 bd e0 93 5d bc d2 88 2f bd
       -0.018493744 -0.11004498 -0.013524026 -0.04285509
000050 42 b3 71 3c e8 4a c2 3b 11 12 05 bc cd bf 4e bd
       0.014752211 0.0059293397 -0.008121983 -0.050475884
000060 74 cf 21 bd 12 fa 2e bd 57 11 40 3c 15 72 04 bb
       -0.039504483 -0.042718954 0.011722884 -0.00202096
000070 15 7c f4 3d 53 27 68 bc af ff 2a bd 2d 55 cd 39
       0.11937729 -0.014169532 -0.041747745 0.00039164108
000080 ba 77 9f bd b1 97 b7 3d 2a 73 17 3c 11 1d cb bc
       -0.07786508 0.0896448 0.009243766 -0.024794133

_impl.final_layer.linear.weight f4 [2, 36]
000000 89 7e 67 3e 85 a5 0b bd 22 1b ba be 4f 5a a5 3e
       0.22606863 -0.0340934 -0.36348826 0.32295462
000010 85 80 fd 3c 6f 9f e2 be f5 05 d3 be 5a 8b b6 be
       0.030945072 -0.44262263 -0.41215482 -0.35653192
000020 93 0f 07 be d0 7d 4c be f6 66 ba be 10 ff d8 bd
       -0.13189535 -0.19969869 -0.36406678 -0.10595524
000030 fe 8c 0d 3d 57 0e 5d 3e 0c 0c 85 3e 1f 08 c5 3d
       0.03455829 0.21587501 0.25985754 0.096206896
000040 de 13 1a 3e 1f b6 84 3e 94 ac 52 3e 41 c7 a8 bd
       0.15046641 0.25920197 0.20573646 -0.0824113
000050 48 a5 b6 3e 4a a0 93 3e 9b c9 0d be 83 ca 76 be
       0.35672975 0.28833228 -0.13846438 -0.2410069
000060 23 e1 a7 bd fa 16 04 3e dc 44 d6 3e 52 59 ad 3e
       -0.08197238 0.1289939 0.4184941 0.33857208
000070 9f 15 3a 3e 9e fb 48 be 59 63 06 3c 21 68 ce 3d
       0.1817231 -0.19627234 0.008202397 0.10078455
000080 70 d1 39 3d e7 b6 75 3e ac ad af 3d 4b 85 67 3e
       0.04536575 0.23995553 0.08578047 0.22609441
000090 61 ae 6c be ab 98 ab bd cd 22 69 3e e1 4c 28 be
       -0.23113395 -0.083787285 0.22767182 -0.16435577
0000a0 8d 28 92 be e5 94 63 3d 47 be 9c 3e 3e be 85 3e
       -0.28546563 0.05556192 0.3061392 0.26121706
0000b0 d0 80 b0 be 87 61 5b be 55 fd e9 3d 7e f4 22 be
       -0.34473276 -0.21423922 0.114252724 -0.15913579
0000c0 b2 02 52 bd 9f fd 43 be e9 11 40 bd 58 cc 96 bc
       -0.0512721 -0.19139718 -0.04689208 -0.018407986
0000d0 c8 ad 96 be 66 79 78 be 2e e7 99 be 82 6d c3 be
       -0.2942946 -0.2426506 -0.3005919 -0.38169485
0000e0 f0 51 03 3e 0d a2 9b 3e 8f 69 78 be 0c 77 3b be
       0.12824225 0.30397072 -0.24259017 -0.18307132
0000f0 c9 b1 a0 3e 06 b4 7a 3e ca fd 96 be c4 82 fa bd
       0.3138564 0.24482736 -0.294905 -0.12231973
000100 db f2 04 bd 44 60 1a be 13 3a 57 3e 8c 4c 3d 3e
       -0.032458168 -0.15075785 0.21018247 0.18486232
000110 2b a2 c7 3e 99 39 00 3e e2 60 af be 02 ad 37 be
       0.38990912 0.12521972 -0.34253603 -0.17937091

_impl.final_layer.linear.bias f4 [2]
000000 33 86 92 3a 6d 93 a6 3b
       0.001117891 0.0050834925
